in memeory
Loading the NLU model
('model.h5', 'nlu.h5')
in init
in build_model
_________________________________________________________________
Layer (type)                 Output Shape              Param #   
=================================================================
dense_2 (Dense)              (None, 75)                450       
_________________________________________________________________
activation_1 (Activation)    (None, 75)                0         
_________________________________________________________________
dense_3 (Dense)              (None, 13)                988       
_________________________________________________________________
activation_2 (Activation)    (None, 13)                0         
=================================================================
Total params: 1,438
Trainable params: 1,438
Non-trainable params: 0
_________________________________________________________________
in build_model
_________________________________________________________________
Layer (type)                 Output Shape              Param #   
=================================================================
dense_4 (Dense)              (None, 75)                450       
_________________________________________________________________
activation_3 (Activation)    (None, 75)                0         
_________________________________________________________________
dense_5 (Dense)              (None, 13)                988       
_________________________________________________________________
activation_4 (Activation)    (None, 13)                0         
=================================================================
Total params: 1,438
Trainable params: 1,438
Non-trainable params: 0
_________________________________________________________________
in load
Loading the model model.h5 
Loading FIle model.h5
in load
Loading the model model.h5 
State: [0. 0. 0. 0. 0.]
[126 126 126 126 126  48 126  78 126  27  94  28]
['i', 'want', 'to', 'travel', 'from', 'tacoma', 'to', 'denver', 'on', 'twenty', 'eight', 'december']
…
